ML_Main/3.1model_loss_0.8230@397_epoch.pth (torch, 67856 bytes, 7 tensors)

fc1.weight f4 [128, 44]
000000 e1 ec 08 3d f0 16 e2 bd 7d 09 fd bc 29 ec e3 bd
       0.03342903 -0.11039531 -0.030888313 -0.11129028
000010 28 e4 1a 3d ab 4c b9 3d 1e 1a 6f bd 53 57 ff 3d
       0.037815243 0.090478264 -0.058374517 0.12467828
000020 62 20 7a bd 41 99 d9 3c a0 2f 0a 3e 51 12 40 3e
       -0.06106604 0.026562335 0.1349473 0.18756987
000030 7c 7f cb 3d 30 b4 0b 3e 45 bd 09 3e 5c 47 ba ba
       0.09936425 0.13642955 0.13451107 -0.001421194
000040 64 9e d9 bc 50 4e 26 be b5 fa e4 bc a2 75 ee 3c
       -0.026564784 -0.16240811 -0.027951578 0.029108826
000050 44 ad 69 3c 2f cf 9a bd 00 be be 3c a9 b0 6f 3d
       0.014262501 -0.075590484 0.023283958 0.058518086
000060 3b 4c 13 3e e9 f3 b2 3d a1 1e 05 3e 5a 00 0f 3e
       0.14384548 0.087379284 0.12999965 0.13964978
000070 26 e3 91 3d 57 d6 d1 3c 05 a4 b6 3d c6 06 cf 3d
       0.07123403 0.0256149 0.08918003 0.10108714
000080 94 a9 3e 3e 40 a3 09 3e 6e 85 97 bd 34 a3 16 bd
       0.18619376 0.13441181 -0.073984966 -0.036776736
000090 fe 94 4a 3b 47 30 af 3c 71 26 fa bd a1 41 e1 bc
       0.003091156 0.021385325 -0.12214363 -0.027497115
0000a0 7f 66 26 3e a6 c4 a9 bd 88 b7 79 3d 5a 46 16 be
       0.16250037 -0.08289461 0.060966045 -0.14675274
0000b0 bb 6f cc bd 07 68 b2 bd f0 75 c2 3c 8d f8 df bd
       -0.099822484 -0.08711248 0.023737878 -0.10936079
0000c0 cb d1 04 3e 7d 26 46 be cb 79 63 bd 09 e4 f0 bd
       0.12970655 -0.1935062 -0.055536073 -0.11762244
0000d0 27 b8 ec 3d d9 04 42 3d 5f 3d eb bd 21 47 57 bd
       0.11558562 0.047367904 -0.11486315 -0.05255807
0000e0 12 22 80 3d 30 2a 72 3d 03 af ea bd 4d d3 a3 bd
       0.062564984 0.059122264 -0.11459162 -0.07999287
0000f0 45 4a 42 bd 07 a5 7a bd 71 67 6b 3d 7d 54 08 be
       -0.04743411 -0.06119254 0.057471696 -0.1331348
000100 69 2d a2 3c 24 43 9a 3b d3 05 49 be a9 6a 4f 3d
       0.019797044 0.004707711 -0.19631128 0.05063883
000110 c4 c6 55 bd 5d ee ea bd 75 96 83 bc 9d 98 a9 3d
       -0.05219151 -0.114712454 -0.016062954 0.08281062
000120 3d 13 96 3d 86 33 07 3d 1c 49 2f 3e e3 67 fe bd
       0.07327888 0.03300812 0.17117733 -0.124221586
000130 e9 59 16 be 45 fd b8 3c 5e b4 e7 3d d8 77 2f bd
       -0.14682736 0.022581706 0.11313699 -0.0428389
000140 fe 21 11 bd 1a 2f 36 be 58 44 2f bd d2 e2 db bd
       -0.035432808 -0.17791405 -0.042789787 -0.10736622
000150 d5 86 6e 3d c1 78 d1 bd 23 82 72 3e 7d 49 e8 3d
       0.058234055 -0.1022811 0.23682456 0.11342142
000160 e4 76 ff 3d 6f 29 85 bd 3a b6 e0 bd 8a f1 a9 bb
       0.124738485 -0.065020435 -0.10972257 -0.0051862644
000170 7f 55 1d be d3 0b 45 3d 57 15 e7 bc f5 ef 84 bd
       -0.15364645 0.04810698 -0.028208418 -0.06491081
000180 59 14 59 3d 33 73 ad bd ba 51 9b 3c d7 6e d8 3d
       0.05299792 -0.08469238 0.018959869 0.10568016
000190 9d 5e 8c 3d d0 e9 a6 bc 60 31 61 be be 5a ed 3a
       0.068539836 -0.020375162 -0.21991491 0.0018108708
0001a0 71 d3 7c bd c2 26 65 bd 4c a2 05 bc 1f 66 62 bd
       -0.061725084 -0.055945165 -0.00815637 -0.05527317
0001b0 09 55 0d be 5e d7 84 3d f5 30 a9 bd e6 98 40 3d
       -0.1380197 0.064863905 -0.08261291 0.047020815
0001c0 e7 6d ed 3d 05 f9 3a bd a6 08 16 be a7 ba 07 3c
       0.11593228 -0.04564764 -0.14651737 0.0082842475
0001d0 cd 45 28 3b 0c 30 8e bd b1 75 4d bc c4 93 e4 bd
       0.002567637 -0.06942758 -0.012540267 -0.111609966
0001e0 d0 95 7b be f5 d2 bf bd 2c bb de 3d a8 28 bd 3d
       -0.24568868 -0.09366409 0.10875544 0.0923627
0001f0 43 d4 67 3e fb 0f 38 bb 17 de f6 bd b1 fb c4 bd
       0.22639565 -0.0028085697 -0.12054079 -0.09618319
000200 0f 16 ad bd 91 94 cf bc 93 b5 77 3e 8c f4 12 3e
       -0.08451473 -0.025339397 0.24190359 0.143511
000210 17 09 eb 3b d0 25 08 3d b7 33 cf bc c7 ff 90 bd
       0.0071727145 0.033239186 -0.025293214 -0.07080036
000220 35 20 9d bd ad d7 c2 bd 96 c4 b8 bd 3f e0 46 bd
       -0.07672159 -0.09513793 -0.09021871 -0.0485537
000230 7d ee 11 be 88 a9 e1 3c 55 34 19 bd 4a 83 ca bd
       -0.14251132 0.02754666 -0.037403423 -0.09888323
000240 52 73 75 bd 59 5b 3c be d3 0e 31 3d 8b e8 85 bc
       -0.05992443 -0.18394221 0.043227028 -0.016346237
000250 11 31 16 3e 2d e9 1a 3e 3d 38 a6 3d 91 be 22 be
       0.14667155 0.15128012 0.08116195 -0.15893008
000260 01 c4 92 bd 03 bf e3 3d 67 ca ca 3d 07 ed 2d bc
       -0.07166291 0.11120417 0.099018864 -0.010615594
000270 04 3c 9e bc 9b a1 3d be 6a ca 8f bc ba 67 94 3c
       -0.019315727 -0.18518679 -0.017552573 0.018115867
000280 8c 00 bc bb b5 41 24 be d8 eb 09 3e 62 73 a0 bd
       -0.00573737 -0.1604069 0.13468874 -0.078345075
000290 ee 68 7a bc a6 76 15 3d 0b 51 15 be c7 d4 dd 3d
       -0.015283806 0.036490105 -0.14581697 0.108316
0002a0 e7 27 c9 bc dc bb b6 3d 73 0f bf 3c d9 a5 76 3c
       -0.02455516 0.0892255 0.023322796 0.01505419
0002b0 51 2d 22 3e fd 94 6d bd 98 3a 14 3b bf 8c 61 3d
       0.158376 -0.058003414 0.0022617932 0.055065867
0002c0 75 d6 00 bd f8 57 83 3c 02 a2 3d bc 67 50 cd bc
       -0.031454522 0.016033158 -0.01157427 -0.025062753
0002d0 19 9f d2 3c 96 8b a9 3d da f1 10 3d 10 db 5a bd
       0.02571063 0.08278577 0.035386898 -0.05343157
0002e0 55 4f ef bd 1e 97 be 3d ac 3f 59 3c 9f ec a1 bd
       -0.11685053 0.09306167 0.013259809 -0.0790646
0002f0 7a df 20 bd a4 a8 de 3d 72 3f 38 be d3 e8 dc bd
       -0.039275624 0.108720094 -0.17992952 -0.10786595
000300 72 f0 01 bc 7f 44 fd bd 87 40 e6 bd 5b 07 21 3e
       -0.007930862 -0.1236658 -0.11242776 0.15725462
000310 7f 99 36 bd 41 21 ca 3d d3 6d 8e 3d 84 f2 ef bd
       -0.04457998 0.09869624 0.06954541 -0.11716178
000320 f5 29 ba 3d 08 d9 63 3d 36 25 d0 3c dd f3 fc bc
       0.09090034 0.0556269 0.025408369 -0.030878002
000330 69 11 d9 bd 2f f1 3d bd 3b dc ba 3d 62 c7 55 3e
       -0.10599024 -0.04637259 0.09124037 0.2087684
000340 54 29 3c be 83 2c b6 3d 73 dd 12 3d 8b 7d 3d 3d
       -0.1837514 0.08895209 0.03585572 0.046262305
000350 ad 4b 96 3d 5f 5e e4 bd 78 4a 1f 3e dd ae 43 bd
       0.07338653 -0.11150812 0.15555751 -0.047774184
000360 dc e0 30 3d d9 1c 5c 3e 39 39 85 3d b3 54 b0 bd
       0.043183193 0.2149538 0.06505055 -0.08609905
000370 eb 37 8a bd f7 bf 5e 3d 52 5c f2 bd d1 b4 f8 bd
       -0.06748947 0.05438229 -0.11834015 -0.12143863
000380 e6 63 37 be 1c bc f0 3d d1 73 94 bd 1f f6 15 39
       -0.17909202 0.11754629 -0.07248653 0.00014301435
000390 48 f0 e1 bd f7 55 37 3e e5 b3 db bc 86 14 aa bd
       -0.11032158 0.17903887 -0.026819179 -0.08304696
0003a0 be 0d 1c be 16 c9 4f bc 10 54 23 be 09 98 6a 3d
       -0.15239617 -0.01268222 -0.15950036 0.0572739
0003b0 63 58 0c 3e dc d1 57 bc 04 d7 a0 3d cf 0c ab bc
       0.13705592 -0.013172593 0.07853511 -0.020880131
0003c0 da 52 35 bd ac 85 23 bd a8 a6 f6 bd 5b ed 95 bc
       -0.044268467 -0.0399224 -0.12043506 -0.018301656
0003d0 bb c0 72 3d d8 40 d6 3d 10 30 cc 3d 42 1d 17 bd
       0.059265833 0.10461587 0.09970105 -0.036893137
0003e0 e7 e6 58 be 33 91 5a bc e8 b2 ee bd 68 64 82 3d
       -0.21181832 -0.013340282 -0.116552174 0.06366807
0003f0 34 2d 98 bd 75 a0 57 bd 2e e3 ce 3d 84 b1 22 3d
       -0.07430497 -0.052643258 0.10101925 0.039720073

fc1.bias f4 [128]
000000 3d 0e 06 be e3 a2 1f bd ac 24 4e bd b2 bf 0a bd
       -0.13091369 -0.0389737 -0.05032794 -0.03387422
000010 9a 3d 8e bc f5 f9 0f 3e 00 53 25 3e 58 23 b9 bd
       -0.017363358 0.14060195 0.16144943 -0.090399444
000020 40 fc 91 34 f2 d8 52 3d 42 17 31 3e 8d 54 23 be
       2.719189e-07 0.051476426 0.17294028 -0.15950222
000030 a1 46 47 3e c1 84 57 3c 7c 8d 02 3d 87 45 02 be
       0.19460537 0.01315421 0.03187321 -0.12721835
000040 fc d7 0e 3e 13 05 e7 bd 1d 76 01 3e 42 50 92 3d
       0.13949579 -0.11280265 0.12642713 0.07144214
000050 8e b7 24 3b 12 eb d9 3c 25 e9 0a 3e b6 82 e3 3c
       0.0025133821 0.026601348 0.135655 0.027772289
000060 b8 11 e3 3d a8 5a 08 3c 3e 18 17 3d 28 dc 05 3e
       0.11087364 0.008322395 0.036888354 0.13072264
000070 c9 14 fb 3d 08 d0 d4 3d bf 20 8d bd 6d 30 23 3e
       0.12259824 0.10391241 -0.068910114 0.15936442
000080 6e f6 23 3e a2 8f 3a 3e 78 e5 94 3d b4 5d dd bd
       0.16011974 0.18218854 0.0727033 -0.10808888
000090 13 a0 22 bc 12 8b fc bd d7 a4 72 bd 9d 02 84 3d
       -0.00992586 -0.12331213 -0.059239235 0.06445811
0000a0 a3 fd ea 3d cc b1 3a bd db ef c7 bc e4 fa 36 bc
       0.114741586 -0.045579717 -0.024406364 -0.011168215
0000b0 32 5b ba 3d 74 43 2b 3c 3c 7d bb bd 0f 24 3d bd
       0.090994254 0.010453094 -0.09154746 -0.046176966
0000c0 93 b7 13 3d 04 e9 63 3e 4b 8f b9 3d 22 38 a3 3d
       0.036063742 0.22256857 0.09060534 0.07969691
0000d0 22 24 a4 bd 60 7f a0 3a 3c 28 1c 3e 37 fe fc 3d
       -0.08014704 0.0012244992 0.15249723 0.12353175
0000e0 4c cb 79 bc 49 0f c6 bd 43 91 34 bd b0 39 01 be
       -0.015246224 -0.09670884 -0.044083845 -0.12619662
0000f0 f5 08 00 bd 4a f2 1a 3e af e5 77 bd 67 9f 58 3e
       -0.031258542 0.15131488 -0.060521778 0.21154557
000100 62 a9 77 3d 48 4e f4 bd 65 08 ef bd b1 ac dd bd
       0.06046427 -0.119289935 -0.11671523 -0.10823954
000110 b4 b7 0c 3c fc 73 03 3e a2 34 29 3e 24 05 3f 3e
       0.00858872 0.12837213 0.16523984 0.18654305
000120 0d e1 59 bd 52 cb f7 3b a4 65 d7 bd 27 8f 06 3e
       -0.05319314 0.0075620795 -0.10517433 0.13140546
000130 0e 7d a3 bd 00 e8 a6 bd 2c 81 33 3e 96 c4 49 3e
       -0.07982837 -0.08149719 0.17529744 0.19703898
000140 27 e3 c1 3c 7e 4a 03 bd f8 14 30 3e bd b4 09 3c
       0.023667885 -0.032053463 0.17195499 0.008404908
000150 f8 07 ce bb 50 1e 3b ba 06 fa 26 be f0 f8 37 bd
       -0.006287571 -0.0007138001 -0.16306314 -0.04491514
000160 95 de c1 3c 71 d2 01 be 28 31 43 3e 90 6d a8 3d
       0.023665706 -0.12677933 0.1906172 0.082240224
000170 0b eb 10 3c aa 77 b5 bd a9 15 f6 ba b7 56 9f bd
       0.008845101 -0.08860715 -0.0018774766 -0.077802114
000180 8e 26 9f 3d 19 88 98 3d 5a 82 eb 3d ad b2 be 3d
       0.077710256 0.074478336 0.11499472 0.093114235
000190 2a e1 fd 3d 25 ee bc 3b b9 74 ab bd b0 58 eb 3c
       0.12396462 0.0057656937 -0.083718725 0.028728813
0001a0 8b 6a 12 3e db 0d 5f bd 2b 8b 37 3e 04 21 61 3d
       0.14298455 -0.054456573 0.17924182 0.054963127
0001b0 35 40 40 3e 87 5f 10 bd 96 cd 11 3e 35 9e f1 bd
       0.18774493 -0.035247352 0.14238581 -0.11797754
0001c0 2e 02 4f 3e b2 5d 2e 3e d2 73 16 bd 55 0f 40 be
       0.20215675 0.1702793 -0.03673155 -0.18755849
0001d0 03 a4 13 be a7 ea 08 be 76 76 4b 3e 4a 07 32 3d
       -0.14418034 -0.13370763 0.19869408 0.043463983
0001e0 12 f6 a5 bc 9e 98 c8 3c e6 3f 8b bd 60 a9 89 bd
       -0.020258937 0.024486836 -0.06799297 -0.06721759
0001f0 9a 5f 2d 3e 99 a9 d8 3c 3f 19 03 be 01 b5 34 3d
       0.16931 0.026448058 -0.128026 0.04411793

fc2.weight f4 [64, 128]
000000 00 23 76 bd 25 f0 13 bd ae e7 59 bb 5a 45 de 3c
       -0.060091972 -0.03611769 -0.0033249664 0.027132679
000010 54 16 c4 3d 8a 43 72 bd 5e 7c 9e 3d 27 54 05 bd
       0.09574571 -0.05914644 0.07738565 -0.032550957
000020 d9 c2 80 bc e1 ff 2a bc 96 83 58 3d b1 e0 c2 bc
       -0.01571791 -0.010436983 0.052859865 -0.023788782
000030 ab d9 f5 bc 12 d2 ea 3d 03 ee 17 3d f3 ae 1d bd
       -0.030011019 0.11465849 0.03709222 -0.038496923
000040 f7 54 f9 bc fd d0 be bc 11 5e c8 3d f0 03 35 bd
       -0.030436022 -0.023293013 0.09783567 -0.04419321
000050 b4 e9 83 3b fe 97 a0 3d e7 1b 9b bd 8c b7 5b bd
       0.0040256623 0.0784149 -0.07573681 -0.05364184
000060 81 d7 a2 3c 2f 88 d6 3d 96 64 85 bd ff 8e b7 3d
       0.01987815 0.10475194 -0.06513326 0.08962821
000070 39 d9 62 bd 53 ec 2a bd 92 3d 42 bd 6c f2 0f 3d
       -0.05538294 -0.041729283 -0.047422 0.0351433
000080 ef 93 a9 3d fa 96 53 3d 22 aa b2 3d 4c 08 c8 3b
       0.08280169 0.051657654 0.087238565 0.0061045047
000090 c9 b9 87 bd 14 71 73 bc 89 28 58 bc b6 df 4f 3d
       -0.066272326 -0.014858503 -0.013193258 0.050750457
0000a0 b2 3a aa 3c d3 d7 c3 3d 1d 9d 84 3d 6c 54 55 3d
       0.020779941 0.095626496 0.064752795 0.052082464
0000b0 e6 13 d0 3c c7 bf e7 3c 53 62 aa 3c 4c 54 f7 3d
       0.025400113 0.028289689 0.020798838 0.12076625
0000c0 02 29 65 bc 5d 30 06 bd 36 2b 95 3c 98 75 94 3c
       -0.013986828 -0.032760967 0.018209081 0.01812248
0000d0 86 e4 85 3a c2 4c a5 3d a0 cc 74 3d 3d 95 85 3d
       0.00102152 0.08071281 0.059765458 0.065226056
0000e0 1e 54 a1 bd ca 51 ee 3d 0c 4a 6d 3b 83 69 2b 3c
       -0.07877372 0.11636694 0.0036207465 0.010462168
0000f0 02 bd 6c bd 61 90 d3 3d 58 f0 3f 3d 7e c6 74 bd
       -0.05779744 0.103302725 0.04686007 -0.05975961
000100 3b 44 bb bd c0 de 51 be 01 ee 7e 3d 5a e0 82 3d
       -0.09143873 -0.20495129 0.062238697 0.06390448
000110 c3 e7 cd bd b2 33 b9 3d cc 8e c5 3d 52 6a 36 bd
       -0.10053971 0.09043063 0.09646377 -0.04453499
000120 7e 36 d6 bd a6 79 31 3d 37 d9 2b bd d6 0c d6 3d
       -0.10459612 0.043328904 -0.0419552 0.10451667
000130 cd a0 0b bd 66 e5 b8 3c 45 99 17 3d a3 f1 85 bc
       -0.0340889 0.022570323 0.037011404 -0.016350573
000140 70 9f 83 3d 6d 40 54 bb 29 2d 4d 3d 83 68 3a bd
       0.06426895 -0.0032387034 0.050091896 -0.045509826
000150 6b 09 77 3c 9d 9c 30 3d f1 c3 b6 bb 63 6a d4 bc
       0.015077929 0.043118108 -0.0055775573 -0.025929635
000160 45 d4 06 3e b5 ec 27 be d6 d2 35 bc 4f 73 ba 3d
       0.13166912 -0.1639889 -0.0110976305 0.091040246
000170 3f 5b c7 bd b5 be 1b bd a3 d8 c2 3c 43 97 aa 3d
       -0.09734201 -0.03802367 0.023784941 0.08329632
000180 04 e5 4c 3d 92 59 e5 3d 66 50 38 bd 87 06 f4 3c
       0.050023094 0.11198725 -0.04499855 0.029788269
000190 5e 52 88 bd 6c c9 92 bd cc 0e 23 3d f3 bd 60 3d
       -0.06656335 -0.071673244 0.039809033 0.05486865
0001a0 39 50 83 bc 4b 2f b0 3d 54 1c 08 bb 56 67 40 3c
       -0.016029464 0.086027704 -0.0020768838 0.011743387
0001b0 c6 7c 54 ba ef 80 82 3d 0a b2 f8 3d a2 3a 8c bd
       -0.0008105751 0.063722484 0.12143333 -0.06847121
0001c0 d2 0c c1 3c 20 ec d3 3d 16 0c 24 be 5b d9 3f 3c
       0.023565684 0.10347772 -0.16020235 0.011709536
0001d0 17 0f c8 3d 48 f3 34 bd e6 8b 04 3d cb 20 0f 3c
       0.09768503 -0.044177324 0.03235998 0.008735846
0001e0 60 f2 25 3d 8a fe c5 3d 21 9e 26 3d 36 17 34 bb
       0.04051435 0.0966769 0.040678147 -0.0027479655
0001f0 87 41 08 bc c3 8c a5 3d 4c 8c 31 bd 7a c0 bb 3b
       -0.008316404 0.08083489 -0.04334669 0.005729732
000200 95 ef db 3c 12 26 6b 3d bf f4 53 3c 80 5c cc 3d
       0.02684764 0.057409354 0.01293677 0.099785805
000210 8f ac 92 bc 08 27 8f 3d 93 f4 a8 3c 79 5e 9a bd
       -0.017904548 0.069898665 0.020624435 -0.075375505
000220 d9 04 04 bb 19 da 3c 3d 32 0f 86 3d 6d f9 0c bd
       -0.002014449 0.04610643 0.06545867 -0.03441756
000230 df 11 83 bd 6d 30 2d 3d 9e fe 82 3d 07 98 80 3d
       -0.06399893 0.04228251 0.063962206 0.06278997
000240 31 1b 60 3c e2 81 8c bc bd db 46 bd 8d 36 c5 3d
       0.013678358 -0.017151777 -0.048549403 0.09629545
000250 55 3f 6c 39 42 2c 11 3c 08 77 e6 3c bd 28 9a 3d
       0.00022530307 0.00886065 0.02813293 0.075273015
000260 c9 3f 90 3d 22 f4 57 3d f9 7c 7d 3d e6 ac b3 3d
       0.07043416 0.052723058 0.06188676 0.08773212
000270 d2 d9 96 3d 2a 65 ec 3d 9a 60 b4 3c eb 9f c3 3b
       0.07365765 0.11542733 0.02201872 0.0059699914
000280 5a 88 26 3d 31 be b0 3d 05 4b 86 3d 0a ae e0 ba
       0.04065738 0.08630026 0.065572776 -0.0017141711
000290 85 f2 c2 bd b0 b3 6f bd bd d0 0d bd 69 01 89 3c
       -0.09518913 -0.058520973 -0.034622896 0.016724305
0002a0 d0 38 20 bd 71 bc b3 3d c3 07 d6 3b 84 63 17 3d
       -0.03911668 0.08776177 0.006531687 0.03696014
0002b0 d4 12 eb 3d fe 5e 80 3d 6b fc 68 3d 43 bb 9b 3d
       0.114782006 0.06268118 0.05688135 0.07604077
0002c0 d9 10 0e 3d 2b 30 01 3e e8 3c 78 3d 59 36 8a 3d
       0.034684036 0.12616031 0.06060496 0.06748647
0002d0 f3 90 74 3d 1d 50 fc bc de 46 d6 bc ad 30 ce 3c
       0.059708547 -0.03079992 -0.026156839 0.025169695
0002e0 d7 49 dd bb e0 04 9a 3c ac ef e7 3d df 92 8b bc
       -0.006753187 0.018801153 0.11325011 -0.017037807
0002f0 c6 d8 5d bd fe 8c 01 3e 38 fa 4b bd 37 84 4c bd
       -0.05416181 0.1265144 -0.049799174 -0.049930777
000300 99 fc 59 3c 7f bb 03 be 81 76 43 bb df 89 87 3d
       0.013304853 -0.12864493 -0.0029825273 0.06618094
000310 1e c5 12 3d de ca d4 bc 6e 1f 47 3d af 30 a0 3c
       0.035832517 -0.02597564 0.048613958 0.019554464
000320 10 8c b7 bd 53 fc d5 3d fd 2c fb 3d ec 03 3c bd
       -0.08962262 0.10448518 0.1226444 -0.045902178
000330 ed 1f cd bc 1e 77 c8 3d 9c 66 4a bd e1 21 ca 3d
       -0.025039637 0.09788345 -0.049414262 0.09869743
000340 0f 0e 82 3d 2f be ba bd a3 34 19 3d 8d f5 39 3d
       0.06350338 -0.09118306 0.037403714 0.04540019
000350 f3 4d 08 bd 19 84 0a 3e e7 77 a1 bb 25 b8 82 3d
       -0.033277463 0.13526954 -0.0049276236 0.06382779
000360 6e 74 2f 3d af f5 de bd 43 7c b2 bc 4b 23 00 3c
       0.042835645 -0.10886704 -0.021787768 0.0078209145
000370 e6 f1 bc bd 32 a3 09 3a 93 ac b6 bc 09 c5 d0 3d
       -0.09225826 0.0005250453 -0.022299087 0.101938315
000380 29 85 21 3d 15 05 be 3d 73 9f 4d 3d 71 d0 1d bd
       0.039433632 0.09278313 0.05020089 -0.038528863
000390 86 dc 5d bd e0 da a3 3d d4 94 53 bc e8 f1 41 3d
       -0.054165386 0.080007315 -0.012913901 0.04734984
0003a0 b7 51 da 3d 0f db b7 3c 88 83 91 3b f7 e9 58 bc
       0.10660117 0.022443322 0.0044407286 -0.013239375
0003b0 26 32 35 3d ed b6 ce 3d c6 3c d8 3d 7b de 8f 3d
       0.04423728 0.10093484 0.105584666 0.07024857
0003c0 a9 bc eb 3d b4 58 81 3d 6b e8 08 be c7 a2 dc 3d
       0.115105934 0.06315747 -0.1336991 0.10773235
0003d0 ba cd d3 3c 5c 85 28 bc 9e 8b 0b 3d 59 2f d4 bc
       0.025854934 -0.010285702 0.034068696 -0.025901483
0003e0 57 c7 0c 3d 2f 36 77 3d ed 94 bc 3d 89 01 05 bd
       0.034369793 0.060354408 0.09208093 -0.032472167
0003f0 00 97 97 bd c7 aa 0e bd 79 ff de bd 42 4d 84 3d
       -0.07401848 -0.034830835 -0.10888571 0.06460048

fc2.bias f4 [64]
000000 2d 7f ca 3c 30 cf 4a 3c e0 c7 f7 3c 28 70 bb 3d
       0.024718845 0.012378499 0.030246675 0.091522515
000010 24 30 a2 3d 5e 93 70 bc f9 46 0c bd 6c e5 cb 3d
       0.07919338 -0.014683573 -0.034247372 0.09955868
000020 c1 3b a2 3c 6a 8a 3b bd 5c 89 79 bd 4b f2 6a 3c
       0.019803884 -0.0457863 -0.06092201 0.014339994
000030 90 38 35 3d 32 33 c0 3c da a9 58 bc c2 20 3a bd
       0.044243395 0.023461912 -0.0132240895 -0.045441397
000040 0f 77 56 3d 89 70 73 bd e1 d2 88 bd f8 67 c2 3c
       0.052359637 -0.059433494 -0.06680847 0.023731217
000050 85 a1 76 bb ef 3d 6d 3d e7 54 78 3d f3 1a 46 3d
       -0.0037632894 0.057920393 0.060627844 0.048365545
000060 01 63 01 bd 48 d4 a0 bb 85 d0 cc 3c 0e c8 fa 3c
       -0.031588558 -0.0049081184 0.025001774 0.030612972
000070 ef 3d 01 bd 29 ca 0d 3c e3 f0 c3 3d e3 fd 2c 3d
       -0.031553205 0.008654156 0.0956743 0.042234313
000080 16 17 56 3d ed be ed 3c 71 95 b0 3d a1 6e 85 bd
       0.05226811 0.029021705 0.08622254 -0.065152414
000090 cc a0 1c 3c 2e 35 08 3c 9f 3f ad 3c 38 ce c3 3c
       0.009559821 0.00831346 0.021148501 0.023902044
0000a0 2f 87 17 bd 62 49 10 3d 2d 0f c7 3d 19 4f af 3d
       -0.036994155 0.035226233 0.097196914 0.085600086
0000b0 3a ef a6 3d fd 58 57 3d fb 8e a4 3d 42 0a a5 3d
       0.081510976 0.0525751 0.08035084 0.08058597
0000c0 03 4e 9a bd ec fe a0 3c 41 60 f9 3c a8 72 e9 3b
       -0.07534411 0.019652806 0.030441405 0.007124264
0000d0 1e 9b a0 bb 89 ec 98 bb c5 d9 b3 3d 64 6e b8 3d
       -0.004901304 -0.004666869 0.087817706 0.0900543
0000e0 0d 53 42 bd 55 de 46 bc 1b 2f 0e bd fc 5c 3e bb
       -0.047442485 -0.012137969 -0.034712892 -0.0029047122
0000f0 73 92 5a bd ed 51 4f 3d 1b bb c7 3c d8 79 9f bd
       -0.05336232 0.05061524 0.024381211 -0.07786912

fc3.weight f4 [32, 64]
000000 9b f0 c5 bd a9 da ed bd 22 f6 8b bd a6 fe 7c bd
       -0.096650325 -0.11613972 -0.068340555 -0.06176629
000010 8d 84 b8 bd 58 67 02 be 8b ac ee bd ff 76 01 bd
       -0.09009657 -0.12734735 -0.11654004 -0.031607624
000020 46 b3 65 bc 9e 75 d1 3d 2e 44 c4 bd 06 68 e8 3d
       -0.014019793 0.10227512 -0.09583317 0.11347966
000030 5c 79 be bc 4e da c5 3b 26 3f 44 bd b9 be 28 bc
       -0.023251228 0.006037987 -0.047911786 -0.010299378
000040 f7 9b f1 bb 48 fb f0 bd 5b b0 b7 3d 3f 33 97 3d
       -0.007373329 -0.11766678 0.08969184 0.07382821
000050 77 36 df bd d0 69 b5 3d eb 06 7b 3d 20 ef ae 3d
       -0.1089906 0.08858073 0.061285894 0.08541703
000060 31 40 fd 3b c5 18 5c 3d 8b 87 86 bc 42 b3 96 bd
       0.0077285995 0.05373456 -0.016422054 -0.073584095
000070 08 6f 8c 3d e9 e3 4a 3d e0 39 58 bd 68 eb 1c 3d
       0.06857115 0.04953376 -0.05278957 0.03831044
000080 c4 9a dd 3d fa 94 9c bd ec 2d 27 bc 45 ba 02 3d
       0.10820535 -0.076456025 -0.01020382 0.03191592
000090 15 19 cc 3d 87 53 50 3d 9c 2c eb bc 28 43 14 3d
       0.099657215 0.050860908 -0.028707795 0.036196858
0000a0 10 cb 22 bc 3c 36 de 3d d4 d0 b4 bd f8 42 70 3c
       -0.009936109 0.10850188 -0.08828893 0.014664404
0000b0 a2 ea 4c bd 9c 1c ab bd a2 7e 59 bd 06 a4 82 3d
       -0.05002845 -0.08355066 -0.053099282 0.06378941
0000c0 d7 59 65 3c d8 28 ea bd ba 5f 99 bc 26 63 b6 bc
       0.01399847 -0.114335716 -0.018722404 -0.022264075
0000d0 b1 50 ad 3d c6 da f0 bd d2 1b 00 be 37 fc fb bd
       0.08462656 -0.11760478 -0.12510613 -0.123039655
0000e0 7a 44 d3 bd e9 b7 4f bc e4 cb c6 bd a9 8a e5 bd
       -0.10315795 -0.012678125 -0.09706858 -0.11208088
0000f0 1c b6 ab bd fd 2f ac bc f7 33 ed bd 8f e7 f2 bd
       -0.08384344 -0.021018976 -0.11582177 -0.118605725
000100 86 cf 3b bd 7d 60 91 bd 66 bc 3e 3d 27 fc 1d 3c
       -0.045852207 -0.07098482 0.04656639 0.009642637
000110 ec b2 5d 3d 24 94 8b 3d f7 ae df 3d 32 79 d9 bd
       0.05412571 0.06815365 0.10922044 -0.10618819
000120 fa 89 27 3d d7 48 79 3d e5 0f dd bd f2 ed e1 bc
       0.04090307 0.06086048 -0.10794047 -0.027579281
000130 59 92 c8 bd e1 12 07 be db a7 a8 bd a8 86 a6 bd
       -0.097935386 -0.13190795 -0.08235141 -0.081311524
000140 52 12 13 be 0a 17 10 bd fb 2c aa 3d e5 8f 34 3e
       -0.14362457 -0.03517822 0.083093606 0.17633016
000150 2c 8e 42 3c 1a 9a 30 3d 37 a5 6c 3d 21 d1 73 39
       0.011874717 0.043115713 0.05777475 0.00023252192
000160 fb 62 99 3d 2f 39 4d 3e 24 29 85 3b f9 db e7 bc
       0.07489582 0.20041345 0.0040637422 -0.028303133
000170 f3 06 cb 3d 95 27 83 3d c7 85 57 3d f2 1e 8c bd
       0.09913435 0.06404034 0.052617814 -0.0684184
000180 98 3f 24 3d 35 f3 9a 3d 00 67 eb bc 40 a3 c1 bd
       0.04009971 0.07565919 -0.028735638 -0.094549656
000190 f0 93 1e 3d 2c d0 7d 3d e4 06 79 3d c3 a8 1c bd
       0.038715303 0.061966106 0.060797587 -0.03824688
0001a0 cf a5 bf 3d 0d 43 3d 3d d0 16 23 3d de e0 d6 3c
       0.09357797 0.046206523 0.039816678 0.026230272
0001b0 ae 0e ea bc 3f 89 71 3d e4 ac b1 bd 96 5c 38 3e
       -0.028571453 0.05896878 -0.086755544 0.18004069
0001c0 9d ea ec bb 31 8e 90 3d 5c 8f 4c bd 40 18 3f 3d
       -0.0072301165 0.07058371 -0.049941406 0.046653986
0001d0 6b a8 51 bc 83 b1 43 bd 62 72 4b 3d 97 7a 81 3d
       -0.012796502 -0.04777671 0.04966963 0.0632221
0001e0 6b 24 62 bd d8 5f a4 bd f8 87 b6 bc 36 f5 a6 3d
       -0.055210512 -0.08026093 -0.022281632 0.08152239
0001f0 10 b5 3a bd d7 f6 ea bd 5e cc 5f 39 cf 8c 51 bc
       -0.04558283 -0.11472862 0.0002134307 -0.012789919
000200 23 19 64 3d af f6 21 3e f1 37 fd 3d 9f b4 0e bd
       0.055688035 0.15816759 0.123641856 -0.034840222
000210 b4 f2 e0 3d 03 54 ed 3d 6b 25 f3 3c a2 6f 2c 3e
       0.10983792 0.115882896 0.029680928 0.1683946
000220 fe 90 17 3e 6e 2b 82 be c9 5a 2f 3e 2a 5a b9 be
       0.14801404 -0.2542376 0.17124476 -0.36201602
000230 56 7d cd 3d 41 31 0c 3e a3 a9 fa bb 6c 2a 4f 3b
       0.100336716 0.13690664 -0.007649617 0.0031610979
000240 82 7b 1b b9 1f b0 d9 bc fb 61 8a be ca 6e a2 be
       -0.00014827962 -0.026573239 -0.27027878 -0.3172515
000250 d3 8d 20 3e a0 6a 4e be 75 91 80 be 17 22 72 bd
       0.15679102 -0.20157862 -0.25110975 -0.05911454
000260 2a ec 41 3d da a9 36 be d0 3d a6 3d a2 16 06 3c
       0.047344364 -0.1783823 0.081172585 0.008184107
000270 f6 e4 7f be ee 63 3c 3d 23 c9 9b 3c a6 ce f0 3d
       -0.24989685 0.045993738 0.019016808 0.11758165
000280 b1 85 87 be 8b 35 d4 3d 6c 71 1a bd bd d3 94 3d
       -0.26469186 0.10361775 -0.037705824 0.07266948
000290 d6 09 4c be de 33 72 3c 0c c3 06 3e 5c 60 21 3e
       -0.19925627 0.014782874 0.13160342 0.15759414
0002a0 2d 0d a2 3d aa 14 29 bd db b0 c7 3d 82 a6 93 3c
       0.07912669 -0.041279472 0.097505294 0.018023733
0002b0 b4 d7 1d 3e 17 70 fe 3d 0e ab f3 bc 35 0c 99 be
       0.15414315 0.12423723 -0.029744651 -0.29892126
0002c0 29 5b 46 be d0 50 a6 bc 7c 04 f4 3d f1 69 f7 bb
       -0.19370712 -0.020302206 0.11914918 -0.007550471
0002d0 9a 96 6e be 38 b1 73 3d 01 a9 d1 3c 16 d0 51 3d
       -0.23299637 0.05949518 0.025593283 0.051223837
0002e0 bf 64 25 3e bb f9 4f 3e 3c 09 c6 bc c5 90 08 3e
       0.16151713 0.20310108 -0.024174325 0.13336475
0002f0 65 38 25 3d 18 10 17 3d cf f2 07 38 eb 19 a0 bc
       0.040336985 0.036880583 3.241264e-05 -0.019543609
000300 83 51 d7 3d ae aa e2 bc 6f b4 1d 3e a5 d2 80 3d
       0.10513594 -0.027669277 0.15400861 0.06290177
000310 9e bc 2e 3e 86 e1 c0 3d 91 27 3e 3d c8 35 85 bd
       0.17064139 0.09418015 0.046424452 -0.065043986
000320 8c 7d 2c bd 50 ef 2d be 9b fd 1b 3e d1 74 d1 be
       -0.04211192 -0.16985822 0.15233462 -0.40909436
000330 bd 20 21 3e be cd 06 bd e5 11 01 3e c9 86 cc 3d
       0.15735145 -0.032911055 0.12604482 0.09986646
000340 7e 85 a6 3c 7d 09 e2 3c ae 37 d8 bd 10 ad 8a be
       0.020327326 0.027592415 -0.10557495 -0.2708516
000350 9b e1 10 3e 82 c6 a4 bd 02 40 0f be a2 94 85 be
       0.14148562 -0.08045675 -0.13989261 -0.2608996
000360 5a 2f db b9 34 68 01 be 48 27 d4 3d af 71 f4 3d
       -0.00041806215 -0.12637407 0.10359055 0.11935746
000370 f3 2c 1a be 7a 4f b5 3d dd 42 ee 3d 57 dd f3 3d
       -0.1505621 0.088530496 0.11633847 0.119074516
000380 96 d5 43 be c8 20 b7 3c f3 fb e7 3d ca 71 98 3c
       -0.19124445 0.022354499 0.113273524 0.018608946
000390 9f 3f 03 be a9 61 41 bd 02 40 d1 3d 62 67 04 bd
       -0.12817238 -0.047212277 0.10217287 -0.032325156
0003a0 23 6e da bb 3c 4a 7e be 56 09 b8 3b 6a ea 98 3c
       -0.0066659614 -0.24833006 0.0056163473 0.018666465
0003b0 12 46 9d bd 26 ad 0c 3e 39 d2 12 3e 58 8d 83 be
       -0.076793805 0.13737926 0.14338006 -0.25693774
0003c0 60 fd bc bd b0 bd d8 3d 23 92 31 3e a0 cd 47 bc
       -0.09228015 0.10583055 0.17340903 -0.012195021
0003d0 71 22 fe bd 53 52 f7 bb b7 86 af bb 21 5e c8 3d
       -0.12408913 -0.0075476556 -0.0053566354 0.09783579
0003e0 87 8c 31 3e fd b2 4d 3e bb dc 2e 3e 32 a2 27 3d
       0.17338763 0.2008781 0.1707639 0.040926166
0003f0 8f d3 7f bd 63 93 1a 3e a2 17 6d bc f8 4c f1 3c
       -0.062457617 0.15095286 -0.0144709665 0.029455647

fc3.bias f4 [32]
000000 a6 10 fb bc 5a 83 d0 3d 5a 91 b3 bc 4d 5d 8f bd
       -0.030647587 0.10181303 -0.021919895 -0.070002176
000010 d3 b2 39 bd a6 81 97 bc 37 12 af bc 0c 77 d9 3c
       -0.045336556 -0.018494438 -0.02137099 0.026546024
000020 84 ef 79 bd 68 83 9d 3d 47 3d ab bd e0 92 22 3d
       -0.061019436 0.076910794 -0.08361297 0.039690852
000030 99 53 60 3d de 83 54 bc 66 fc 02 3d 0b 54 b0 bd
       0.054767225 -0.012970893 0.031978987 -0.0860978
000040 9d f3 d4 bd d6 b3 09 3c 94 35 38 bd cf e9 e6 3d
       -0.10398028 0.008404693 -0.04497297 0.11275064
000050 46 9c 1b 3d 78 77 cc 3c 85 4a b2 3d d4 89 e4 3d
       0.03799083 0.02495931 0.0870562 0.11159101
000060 a4 03 4f 3d dc 92 88 3d ad c3 98 3d 9e 19 8a 3d
       0.05054058 0.06668636 0.07459197 0.06743167
000070 b2 af 13 3d 90 dc b8 bd d8 24 51 3d 1b 3e db bd
       0.036056228 -0.09026444 0.051060528 -0.10705205

fc4.weight f4 [1, 32]
000000 c2 1b 3d be e9 1b 24 be 25 1f 2b 3e ae fa 3e 3e
       -0.1846762 -0.16026272 0.167111 0.18650314
000010 47 74 2c 3e 60 18 53 3e bf 93 25 3e a5 49 0a be
       0.16841231 0.20614767 0.16169642 -0.13504656
000020 ce 26 6a be 52 d0 99 be 08 82 65 be 72 9a 76 be
       -0.22866365 -0.30041748 -0.22412884 -0.24082354
000030 d1 74 59 3e 64 73 1c 3e ef 94 55 3e 5c b3 a5 be
       0.21235968 0.15278393 0.20857595 -0.32363403
000040 96 c5 fe 3d 0e 26 0c 3e 0b ca f6 bd 72 98 8f 3d
       0.1244003 0.13686392 -0.120502554 0.070114985
000050 96 7d 43 3e e9 e5 36 3e 2c 2a 1b 3e 3b 47 c5 be
       0.19090876 0.17861141 0.15152806 -0.38530907
000060 e5 29 a5 bd a2 5a 83 be b3 a7 05 be 3e ea 3f be
       -0.080646314 -0.25655085 -0.13052253 -0.187417
000070 a2 67 71 3e 72 79 73 3e 55 e6 43 be 44 e7 51 3e
       0.23574689 0.23776796 -0.19130833 0.20498377
