ML_Main/model_best_val_loss.pth (torch, 67856 bytes, 7 tensors)

fc1.weight f4 [128, 44]
0	0x3d0a0fd6	0.03370651
1	0x3cd582ec	0.026063405
2	0xbe044eac	-0.12920636
3	0xbd89b1d5	-0.06723372
4	0xbd9a491e	-0.07533477
5	0xbd19bb50	-0.03753215
6	0xbdaa31c9	-0.08310277
7	0xbe0b7d00	-0.13621902
8	0xbdbd5f26	-0.09246664
9	0xbdf127b9	-0.117751546
10	0x3dd451e4	0.10367182
11	0xbd1b0780	-0.03784895
12	0xbd8647ae	-0.065566406
13	0x3de74d28	0.11294013
14	0xbe09bcd2	-0.13450935
15	0x3e220428	0.15821898
16	0x3db8284f	0.08992063
17	0x3c8da1e5	0.017289111
18	0x3dcad6de	0.09904264
19	0xb815477e	-3.559095e-05
20	0xbe297731	-0.16549374
21	0x3d00dc86	0.031460308
22	0xbcfc0238	-0.030762777
23	0x3db5bff3	0.08874502
24	0x3bd8f3ad	0.0066208453
25	0xbddb24fb	-0.10700413
26	0xbde70d32	-0.11281814
27	0xbda78ae2	-0.08180787
28	0xbe0f2e5a	-0.13982525
29	0xbda7c44d	-0.08191738
30	0xbcd9750b	-0.026545068
31	0xbcd2a590	-0.025713712
32	0x3db3fbd3	0.08788266
33	0x3c4abb54	0.012373764
34	0x3e251432	0.16120985
35	0x3c2a5e07	0.010398394
36	0x3d8cbb2f	0.0687164
37	0xbd2a07a0	-0.041511178
38	0xbc9c5d2e	-0.0190874
39	0x3e06653e	0.13124558
40	0xbd72be5d	-0.059263576
41	0x3c18fdf4	0.009337891
42	0xbce20c2b	-0.027593693
43	0x3e01eef9	0.12688817
44	0x3e047d6f	0.12938474
45	0xbdb6721c	-0.089084834
46	0x3dff2be9	0.12459547
47	0xbdba10cd	-0.09085236
48	0x3d886374	0.06659594
49	0x3da920dc	0.082582206
50	0xbe116243	-0.1419764
51	0xbe3769b0	-0.1791141
52	0x3d6503e6	0.05591192
53	0xbdcde2de	-0.10053037
54	0x3cef5286	0.029214155
55	0x3dcf7009	0.10128791
56	0x3dad2b1a	0.084554866
57	0xbd10e797	-0.03537711
58	0x3930a326	0.00016845445
59	0xbe243a75	-0.16037925
60	0x3dca927f	0.09891223
61	0xbb156513	-0.002279584
62	0xbcb18c16	-0.021673243
63	0xbc4b1ff4	-0.012397755
64	0xbe2a1c48	-0.16612351
65	0xbdf32ac0	-0.11873388
66	0xbda989a1	-0.08278204
67	0x3de20946	0.11036925
68	0x3df1943a	0.1179585
69	0xbdb96ff6	-0.09054558
70	0xbe2fe826	-0.17178401
71	0xbb5c6c77	-0.0033633986
72	0x3ddff391	0.109351285
73	0xbe04ea1d	-0.12979932
74	0x3ddf19bb	0.108935796
75	0xbc77a79a	-0.015115643
76	0x3d117a77	0.035517182
77	0xbb81be53	-0.003959456
78	0xbd554d92	-0.05207593
79	0xbda76e21	-0.08175302
80	0x3cecfb72	0.028928492
81	0x3deeadbd	0.11654232
82	0xbd2e6109	-0.04257301
83	0x3e332f3b	0.17498486
84	0x3d716451	0.05893356
85	0xbc9292bf	-0.01789224
86	0xbdc69874	-0.09697047
87	0xbd9b2fd1	-0.0757748
88	0x3dd1e9c0	0.102496624
89	0x3cd90888	0.026493326
90	0x3de7eed5	0.113248505
91	0x3d7db5a6	0.06194081
92	0x3d8743ef	0.06604754
93	0x3df0fb8e	0.1176673
94	0xbd0209f0	-0.03174776
95	0x3e335293	0.17511968
96	0xbdf036bc	-0.1172919
97	0x3e09ddcf	0.1346352
98	0xbd92ecaa	-0.07174046
99	0x3def6398	0.11688918
100	0xbe081736	-0.13290104
101	0xbcbe40ed	-0.023224318
102	0xbde81970	-0.11332977
103	0x3c538672	0.012910472
104	0x3e00cc00	0.1257782
105	0xbdbe4926	-0.09291296
106	0xbe2abd85	-0.16673858
107	0x3da5af46	0.080900714
108	0xbcd55d95	-0.0260456
109	0x3d9bf15c	0.07614395
110	0xbdee08d6	-0.11622779
111	0xbd805aca	-0.06267317
112	0x3e0b71c9	0.13617624
113	0x3daf32db	0.08554622
114	0xbdb5ab8e	-0.08870612
115	0xbb7f19a2	-0.003892519
116	0xbc6bbe0f	-0.014388575
117	0xbd85aa3f	-0.065266125
118	0xbd15857e	-0.03650426
119	0x3d545555	0.05183919
120	0xbd800f9b	-0.062529765
121	0x3e4588cd	0.19290467
122	0x3cf3a0c9	0.029739754
123	0x3d372974	0.044717267
124	0xbc16a3e6	-0.00919435
125	0x3cb56ec8	0.022147551
126	0x3ca32fc3	0.019920235
127	0xbde314f5	-0.110879816
128	0xbd374bc8	-0.044750005
129	0xbe0b3239	-0.13593377
130	0x3df5e6cc	0.12006912
131	0xbd665e70	-0.056242406
132	0xbc864e63	-0.0163948
133	0x3e138d0b	0.14409272
134	0x3ded6f40	0.11593485
135	0xbcf7f347	-0.03026737
136	0x3cacdd42	0.021101598
137	0xbc65f056	-0.014034351
138	0xbd3c435d	-0.04596268
139	0xbc79c4ca	-0.015244672
140	0xbd64edab	-0.05589072
141	0x3e2fd29c	0.17170185
142	0xbd3f2531	-0.046666328
143	0x3d54c59c	0.051946267
144	0x3d49dfea	0.049285807
145	0x3d8f3490	0.069924474
146	0xbe1906ab	-0.1494395
147	0x3dceeec7	0.10104137
148	0x3ddc3de8	0.10753995
149	0xbdae28e3	-0.08503892
150	0x3e2b94c8	0.16755974
151	0xbb9ae5df	-0.00472711
152	0xbdad279c	-0.084548205
153	0xbe250604	-0.16115576
154	0xbd953ebd	-0.07287357
155	0x3d20872f	0.03919142
156	0xbd863c83	-0.065545104
157	0x3c0ca67b	0.008584614
158	0xbe2fa741	-0.17153646
159	0xbd1451aa	-0.036210693
160	0x3d32f3ea	0.043689646
161	0xbd7fd1c1	-0.062455896
162	0x3d96c5ac	0.07361922
163	0xbd03be7f	-0.032164093
164	0xbe03559a	-0.12825623
165	0x3de56f47	0.11202865
166	0xbe062fa3	-0.1310411
167	0xbe16d025	-0.14727838
168	0x3dba6790	0.09101784
169	0xbd9828be	-0.07429646
170	0x3e4527ca	0.1925346
171	0x3e1d8c1e	0.15385482
172	0x3cf269c4	0.029591449
173	0x3d971494	0.07376972
174	0x3e3cb935	0.18430026
175	0x3dc4dc6f	0.09612357
176	0x3df5ee3e	0.12008332
177	0x3e101669	0.14071049
178	0x3da6a19b	0.081362925
179	0xbccb081b	-0.024784138
180	0xbdee04ba	-0.11621995
181	0xbd00746a	-0.03136102
182	0xbe178079	-0.14795102
183	0xbb2d112c	-0.002640794
184	0xbdbb37b7	-0.09141486
185	0x3b5f808c	0.003410372
186	0xbde75ffa	-0.11297603
187	0x3dcec6c2	0.10096504
188	0xbe409527	-0.18806897
189	0xbcb3df96	-0.0219572
190	0xbdd66b38	-0.10469669
191	0x3dc3b7b8	0.09556526
192	0x3c1cc05c	0.009567346
193	0xbe04789e	-0.12936637
194	0xbcbaebbc	-0.022817485
195	0xbc67d58d	-0.014150036
196	0x3cfdea43	0.030995494
197	0xbd863b63	-0.06554296
198	0xbdd3377b	-0.103133164
199	0xbe07164a	-0.13192096
200	0xbdd27a47	-0.10277229
201	0xbde21503	-0.11039164
202	0x3d50b162	0.050950415
203	0xbdf3eb10	-0.11910069
204	0xbd572487	-0.05252507
205	0xbdcfc082	-0.1014414
206	0xbe01bb57	-0.1266912
207	0xbe1e33a6	-0.1544939
208	0x3dca4e4c	0.09878215
209	0x3e0b3adc	0.13596672
210	0x3e294158	0.16528833
211	0xbd007e2b	-0.031370323
212	0xbdceb139	-0.10092396
213	0x3df6361a	0.12022038
214	0xbdc2504e	-0.09487973
215	0xbd47c16d	-0.04876845
216	0xbd540795	-0.051765043
217	0xbe04176c	-0.1289956
218	0xbd835cbc	-0.06414172
219	0xbe053057	-0.13006721
220	0x3ca2c4c7	0.019869221
221	0xbe55b59a	-0.20870057
222	0xbc506667	-0.012719727
223	0x3da6fb9d	0.0815346
224	0x3dbfa94f	0.09358465
225	0x3a7afc31	0.00095743226
226	0xbcc48420	-0.023988783
227	0xbdf40577	-0.11915105
228	0xb98f578b	-0.0002734031
229	0xbd150e4b	-0.036390584
230	0x3cc561f3	0.024094557
231	0x3d82f1eb	0.063937984
232	0xbdfe35ff	-0.12412643
233	0x3da0e326	0.07855825
234	0x3e196892	0.14981297
235	0xbbdefb8d	-0.0068048895
236	0xbdd334ad	-0.103127815
237	0x3d1219b3	0.03566904
238	0xbe32a37b	-0.17445175
239	0x3d8b79e7	0.068103604
240	0xbdc3c617	-0.09559267
241	0x3e5ed3c8	0.21760476
242	0x3deb7d6d	0.114985324
243	0xbdabed08	-0.083948195
244	0xbe22e297	-0.1590675
245	0x3d9afe7f	0.075680725
246	0xbddf7955	-0.10911814
247	0xbc0f814f	-0.008758857
248	0xbe1b96f9	-0.1519431
249	0xbdd62dc5	-0.104579486
250	0xbc895017	-0.016761823
251	0xbda94170	-0.08264434
252	0x3e1d380a	0.15353408
253	0x3e07e9c5	0.1327277
254	0x3e04f2f8	0.1298331
255	0xbddfecd7	-0.109338455

fc1.bias f4 [128]
0	0x3cac622c	0.021042906
1	0xbde49d0f	-0.11162769
2	0x3da551d7	0.0807225
3	0x3dfcadae	0.12337814
4	0x3ccd8483	0.0250876
5	0xbd1a2329	-0.037631188
6	0xbd9d1f91	-0.076720364
7	0xbc59eabc	-0.013300594
8	0x3de43b90	0.11144173
9	0xbde35027	-0.11099272
10	0x3e381f19	0.17980613
11	0x3e0946bc	0.1340589
12	0x3d4021ff	0.04690742
13	0xbdaabceb	-0.083368145
14	0x3e01a400	0.12660217
15	0x3dccbeb7	0.099973135
16	0x3e089f33	0.1334198
17	0x3d93b5dd	0.07212422
18	0xbdd7d7a0	-0.10539174
19	0x3d9b5d55	0.07586161
20	0x3da2cae4	0.079488546
21	0xbccc8d76	-0.024969798
22	0x3d97df59	0.07415647
23	0x3e0dd83a	0.13852015
24	0x3ddf1dfc	0.10894391
25	0xbd684d2b	-0.056714218
26	0x3d987558	0.074442565
27	0xbdab10b1	-0.08352793
28	0x3e205094	0.15655738
29	0x3d120372	0.035647817
30	0x3e2e7a15	0.17038758
31	0x3e054397	0.13014065
32	0xbdc4fb7b	-0.096182786
33	0xbca1aed5	-0.019736687
34	0x3e144d1f	0.14482544
35	0xbd93477b	-0.07191368
36	0xbd789478	-0.060688466
37	0x3dfcf65b	0.12351676
38	0xbc359539	-0.011082941
39	0xbd80c36b	-0.06287273
40	0x3dd98680	0.10621357
41	0xbbc73385	-0.0060791397
42	0x3dc42b81	0.0957861
43	0x3e15e287	0.14637195
44	0xbd220ac3	-0.039561044
45	0x3dc5ca62	0.09657742
46	0x3e3cc5b5	0.18434794
47	0x3e5fe690	0.21865296
48	0x3da873e0	0.082252264
49	0xbdb2d246	-0.08731513
50	0xbdf092da	-0.1174676
51	0xbdf13e7f	-0.11779498
52	0x3df47ba8	0.11937648
53	0x3e0a0823	0.13479666
54	0x3e0fdabb	0.14048283
55	0xbcdd18a7	-0.026989294
56	0x3e049c74	0.12950307
57	0xbc6d6a9f	-0.0144907525
58	0x3d8a7d75	0.0676221
59	0xbd5c23a2	-0.05374492
60	0x3da0bd9f	0.07848667
61	0x3e065d47	0.1312152
62	0x3d69aad1	0.05704767
63	0xbc52132f	-0.012821957
64	0x3e11f37b	0.14253037
65	0xbd7d7d98	-0.061887354
66	0x3e25539a	0.16145173
67	0x3e2e9dca	0.17052379
68	0x3d9514b0	0.072793365
69	0x3bd57cb6	0.006515111
70	0xbd77a657	-0.06046137
71	0xbd832e35	-0.06405298
72	0xbcd4d70e	-0.025981452
73	0x3e2441fa	0.16040793
74	0x3dd112dc	0.10208675
75	0x3df545a4	0.119761735
76	0xbc833000	-0.0160141
77	0x3e454d1c	0.19267696
78	0x3bc22775	0.005925114
79	0xbdca1376	-0.09866993
80	0x3dcad7c1	0.09904433
81	0xbd5f07d5	-0.05445083
82	0x3d94be1b	0.07262822
83	0xbd9148f9	-0.070939966
84	0xbca49bfd	-0.020093912
85	0xbd378af2	-0.044810243
86	0x3b35b056	0.0027723513
87	0xbc0bde9e	-0.008536963
88	0xbcf424d7	-0.029802723
89	0x3cb7859d	0.022402579
90	0xbd6c4b79	-0.057689164
91	0xbdfef069	-0.12448198
92	0x3d5cede7	0.05393782
93	0x3d8ff719	0.07029552
94	0x3e2f8aaf	0.17142747
95	0x3e078269	0.13233341
96	0x3d1084aa	0.03528277
97	0x3dd6bae9	0.10484869
98	0x3d96698b	0.073443495
99	0x3e284dcb	0.16435926
100	0x3ca92642	0.020648126
101	0xbdd18b38	-0.10231632
102	0x3c378d75	0.01120316
103	0xbdabf50f	-0.083963506
104	0x3d644839	0.05573294
105	0xbb1af328	-0.0023643468
106	0x3d70bed7	0.05877575
107	0x3c62d7ff	0.013845443
108	0xbd5aa614	-0.05338104
109	0xbd75288b	-0.059853118
110	0x3ce7f679	0.02831577
111	0x3d8bc074	0.06823817
112	0x3bdfe0c2	0.006832213
113	0x3d6cbfbf	0.05780005
114	0x3cc7b97c	0.024380438
115	0x3c889950	0.016674668
116	0xbd44a507	-0.048008945
117	0x3d374ee4	0.04475297
118	0x3e57dddd	0.21080728
119	0x3d5ccdd9	0.05390725
120	0x3de40cfe	0.111352906
121	0x3dcb70b0	0.09933603
122	0x3dccebda	0.100059226
123	0x3d8392ba	0.0642447
124	0xbd4dc79f	-0.0502392
125	0x3e450f14	0.19244033
126	0x3d2b27d1	0.04178602
127	0xbdc5eb3e	-0.096640095

fc2.weight f4 [64, 128]
0	0x3e03c6f4	0.12868863
1	0xbda94b34	-0.08266297
2	0xbbdf9596	-0.006823252
3	0xbb10f139	-0.0022116436
4	0x3da91e9f	0.08257794
5	0x3cc50794	0.024051465
6	0x3cb192b4	0.021676399
7	0xbd03ee89	-0.032209907
8	0x3cbac2c5	0.022797951
9	0xbd3cab53	-0.046061825
10	0xbc9c8f22	-0.01911122
11	0xbcb4bb3e	-0.02206194
12	0x3d882dc6	0.066493556
13	0xbdac8c67	-0.08425217
14	0xbd244df5	-0.040113408
15	0xbd48eecc	-0.04905586
16	0xbd981a93	-0.07426944
17	0xbcc73cd7	-0.024321003
18	0xbd0ff7e4	-0.035148516
19	0xbda496f7	-0.08036607
20	0x3d94312b	0.072359405
21	0xbd1ee106	-0.038788818
22	0x3dd1d1c2	0.10245086
23	0x3b4d468f	0.0031322574
24	0x3d0c1d93	0.03420789
25	0xbd7d3a06	-0.061822914
26	0x3cfd2655	0.030902067
27	0xbe1a3cbe	-0.15062234
28	0xbd850fc1	-0.064971454
29	0x3a468ec1	0.00075743726
30	0xbdd5fc23	-0.10448482
31	0x3d8d5941	0.069017895
32	0x3de50c8f	0.11184036
33	0xbdb8a6dd	-0.09016202
34	0x3c6f35c6	0.014600223
35	0xbd4e3ca3	-0.050350796
36	0x3cd7254e	0.026262905
37	0xbdfa409f	-0.12219357
38	0x3c4644c5	0.012101357
39	0x3d8745de	0.06605123
40	0xbc35ff8b	-0.0111082895
41	0x3c0ddbdd	0.0086583765
42	0xbd9cefad	-0.07662902
43	0x3d246055	0.040130932
44	0xbc2f96d3	-0.010717112
45	0x3e0082ee	0.12549946
46	0xbd42b694	-0.0475374
47	0xbd919b9a	-0.07109757
48	0x3c814c3d	0.015783424
49	0x3daaa2c2	0.08331825
50	0xbbf7d768	-0.00756352
51	0xbdc365d9	-0.0954091
52	0x3cfe3b37	0.031034095
53	0x3dd88d4c	0.10573825
54	0xbd53c2a2	-0.05169929
55	0xbbdf5d26	-0.006816524
56	0xbccc983d	-0.024974937
57	0x3c95d011	0.01828769
58	0x3d22af84	0.039718166
59	0xbd0281e1	-0.031862143
60	0xbd31070b	-0.043219607
61	0x3dc1aef4	0.09457198
62	0x3c9d479e	0.019199189
63	0xbddc3ce1	-0.10753799
64	0x3d8dd11f	0.06924652
65	0x3b7a9a6d	0.0038239018
66	0xbbed22b7	-0.0072368043
67	0xb876dcd0	-5.8856618e-05
68	0xbc506aa1	-0.012720735
69	0x3caee802	0.021350864
70	0x3dbbd0b9	0.0917067
71	0x3dd143cb	0.102180086
72	0x3c5991ed	0.01327942
73	0x3dde7cd7	0.10863655
74	0x3da8f2be	0.082494244
75	0xbd4cb8b3	-0.04998083
76	0xbdf29dd8	-0.118465126
77	0x3c12ab65	0.008951996
78	0x3db14c74	0.086571604
79	0xbc8ae435	-0.01695452
80	0x3d836429	0.064155884
81	0x3cf43572	0.029810641
82	0x3e04c91b	0.1296734
83	0x3c041f09	0.00806404
84	0xbd6271bd	-0.05528425
85	0x3d7f34e2	0.062306292
86	0x3d900be6	0.070335194
87	0xbdb3041d	-0.08741019
88	0xbbdc175e	-0.006716653
89	0xbdaeeb65	-0.08540992
90	0xbd47c0e7	-0.04876795
91	0xbcc9f3ad	-0.024652326
92	0xbda57448	-0.080788195
93	0x3d81f1b6	0.06344931
94	0xbdc8cd98	-0.09804839
95	0x3c453b5b	0.012038077
96	0x3b8e882b	0.0043497286
97	0xbc77418d	-0.015091312
98	0xbbfd494b	-0.0077296845
99	0xbd96958c	-0.073527426
100	0x3d63bbd3	0.055599045
101	0xbd17187f	-0.036888596
102	0x3d374636	0.044744693
103	0x3e0172ba	0.12641421
104	0x3da7d5ff	0.081951134
105	0x3d9b5ca9	0.07586033
106	0x3c51691e	0.01278141
107	0x3d25aeee	0.04045003
108	0x3da8b12b	0.08236917
109	0x3d737dc4	0.05944611
110	0xbdae412d	-0.08508525
111	0x3d882d10	0.0664922
112	0xbddd4937	-0.1080498
113	0x3d77214f	0.0603345
114	0x3c6c955f	0.01443991
115	0xbd390ae5	-0.045176405
116	0x3cab4936	0.020908933
117	0xbd18d608	-0.03731349
118	0xbdb8b8e6	-0.090196416
119	0xbcf2dc22	-0.029645983
120	0xbb105900	-0.0022025704
121	0xbd449ebf	-0.048002955
122	0xbae9e35d	-0.0017844249
123	0xbda33586	-0.07969193
124	0x3e0889db	0.13333838
125	0xbcd89b05	-0.026441107
126	0x3dab7803	0.083725
127	0x3d322645	0.043493528
128	0xbd5512a5	-0.052019734
129	0xbd24978d	-0.040183593
130	0x3ce18f89	0.027534263
131	0x3db68d7d	0.089137055
132	0xbcec3935	-0.028835872
133	0x3ddc0cdf	0.107446425
134	0x3b5f62d6	0.003408601
135	0x3c6e5eda	0.014548982
136	0xbc5cdd73	-0.013480532
137	0xbdab5a28	-0.08366805
138	0x3c3f8216	0.01168873
139	0x3d543081	0.05180407
140	0x3e072a50	0.13199735
141	0xbb2b0be2	-0.0026099612
142	0xbc3832b6	-0.011242559
143	0xbce7e873	-0.028309083
144	0x3d4c1045	0.049820203
145	0x3cb7f0d1	0.022453697
146	0x3dbd38d3	0.09239354
147	0xbc8943c0	-0.016755939
148	0xbdb4a339	-0.08820195
149	0xbe1c7289	-0.15278067
150	0x3cdbf4fe	0.02685022
151	0xbd16e049	-0.03683499
152	0xbdd9c2bf	-0.10632848
153	0x3e1a1a87	0.15049182
154	0x3d418e4d	0.04725485
155	0xbde371df	-0.111057036
156	0xbcb10aed	-0.021611655
157	0xbe032bfd	-0.12809749
158	0x3b525302	0.0032092934
159	0x3ce4da7b	0.02793621
160	0x3ccb1238	0.02478896
161	0xbd1b0620	-0.037847638
162	0x3d81fad3	0.06346669
163	0xbdc59eec	-0.096494526
164	0xbbc84ee6	-0.006112921
165	0xbe2ee1c9	-0.17078318
166	0x3dafd8b3	0.08586254
167	0x3d4b602d	0.049652267
168	0xbdb55435	-0.08853952
169	0x3ba4b283	0.005026163
170	0xbd8058e3	-0.06266954
171	0xbcf437e6	-0.02981181
172	0xbe2954d8	-0.16536272
173	0x3d1e63c3	0.03866936
174	0x3c35e6a3	0.011102351
175	0xbda232d3	-0.0791985
176	0x3d6fd7ba	0.058555342
177	0xbccb4d6d	-0.024817193
178	0xbe7e21a5	-0.24817522
179	0xbd287e6c	-0.04113619
180	0x3d448fb6	0.047988616
181	0x3dc914d2	0.09818424
182	0xbd34ac46	-0.044109605
183	0xbdb06b11	-0.08614171
184	0x3bad351d	0.0052858726
185	0x3dcb7870	0.09935081
186	0xbcf2882b	-0.029605946
187	0x3ca02d53	0.019552862
188	0x3d05f5a0	0.03270495
189	0x3da519fe	0.08061598
190	0x3c348c8b	0.011019836
191	0xbdac880f	-0.084243886
192	0x3d1cb1e3	0.038255583
193	0xbdb45d82	-0.08806898
194	0x3d2eda2f	0.042688545
195	0xbc8ddca8	-0.017317131
196	0xbe0fc6c8	-0.14040673
197	0xbc3e2c51	-0.011607246
198	0xbda70714	-0.08155647
199	0xbd6a612c	-0.057221577
200	0xbe20d07b	-0.15704529
201	0x3cae702c	0.021293722
202	0x3dd9c1a1	0.10632635
203	0x3c655025	0.013996159
204	0xbd00effd	-0.03147887
205	0xbd904911	-0.07045186
206	0x3e4001f9	0.18750753
207	0xbd634937	-0.055489745
208	0x3d70e179	0.058808777
209	0x3a4be57c	0.0007778031
210	0xbdd45a3e	-0.10368775
211	0x3d73032a	0.05932919
212	0x3980e4b0	0.00024584448
213	0x3d3ad747	0.04561546
214	0xbbd6e6c9	-0.0065582735
215	0xbe085f2f	-0.1331756
216	0x3ca1e26e	0.01976129
217	0xbdbd6513	-0.09247794
218	0x3da90d69	0.08254511
219	0xbd3f94ab	-0.04677264
220	0x3d1f5950	0.038903534
221	0xbd82cda7	-0.06386881
222	0xbc36cf58	-0.011157833
223	0xbe2fbbfb	-0.17161553
224	0x3d9e45d9	0.07728166
225	0xbcff8d9c	-0.031195454
226	0xbd9c85c4	-0.07642701
227	0xbca09287	-0.01960112
228	0x3e0222ec	0.12708634
229	0xbca1db7f	-0.019757984
230	0xbd98d265	-0.074620046
231	0xbe043cf5	-0.12913878
232	0x3d8d6984	0.06904891
233	0xbd811a8b	-0.06303891
234	0x3d06cce3	0.03291024
235	0x3d3b0c65	0.045666117
236	0x3c96e637	0.018420322
237	0xbd039f24	-0.03213419
238	0xbc9da503	-0.019243723
239	0xbc27aba9	-0.010233798
240	0xbd75fbad	-0.06005447
241	0x3df506ed	0.119642116
242	0xbdcdf3c0	-0.10056257
243	0x3c83f5aa	0.016108353
244	0xbcdffd78	-0.027342543
245	0xbd3f4807	-0.04669955
246	0xbbb4e17a	-0.005520043
247	0x3d047269	0.032335673
248	0x3d17645a	0.036960937
249	0xbde4fb61	-0.11180759
250	0xbdc187c1	-0.09449721
251	0xbdcaeef8	-0.09908861
252	0x3d01464e	0.03156119
253	0x3cf1f432	0.029535387
254	0x3de66880	0.112504005
255	0xbd50a26a	-0.05093614

fc2.bias f4 [64]
0	0x3cc5a724	0.02412755
1	0xbc845621	-0.01615435
2	0x3dde0092	0.108399525
3	0xbd00d788	-0.031455547
4	0xbca062a8	-0.019578293
5	0x3d92b412	0.07163252
6	0x3dd61062	0.104523435
7	0x3d24ddf9	0.040250752
8	0xbda0b047	-0.07846122
9	0x3da1ffc7	0.07910114
10	0x3df1f4e9	0.11814291
11	0x3d8437dc	0.06455967
12	0xbd825760	-0.06364322
13	0x3d685456	0.056721054
14	0x3d2fcc94	0.04291971
15	0x3db3c766	0.087782666
16	0x3c946e00	0.018118858
17	0x3db453b8	0.088050306
18	0xbc90fadd	-0.017697746
19	0xbba2a90b	-0.004963999
20	0x3d9d0c42	0.076683536
21	0xbd106e7f	-0.035261627
22	0x3d6bde23	0.057584893
23	0xbcd66116	-0.026169341
24	0xbc98bc62	-0.018644515
25	0x3d24c50b	0.040226977
26	0x3d9e1475	0.077187456
27	0x38aa9df0	8.13565e-05
28	0xbd3133a2	-0.04326213
29	0xbbd5155c	-0.0065027904
30	0x3d3db23d	0.04631256
31	0xbd541287	-0.05177548
32	0xbd8a103a	-0.06741376
33	0xbbe2ed3c	-0.006925253
34	0xbd0e4d26	-0.034741543
35	0x3c9e8699	0.01935129
36	0x3dbd289e	0.09236263
37	0x3dca563d	0.0987973
38	0x3dcddcf9	0.10051913
39	0xbda6182c	-0.08110079
40	0x3dd08165	0.1018093
41	0xbc0e5ed7	-0.008689604
42	0x3dc2b46f	0.09507071
43	0x3d185e00	0.03719902
44	0x3de3328f	0.11093628
45	0x3b1e0423	0.0024111352
46	0x3d54d1a9	0.05195776
47	0x3cbc2f2d	0.022971714
48	0xbd5f565f	-0.05452573
49	0xbd2e8f30	-0.042617023
50	0xbd55352c	-0.05205266
51	0x3c8109d5	0.015751759
52	0xbd3acaca	-0.04560355
53	0x3d54335e	0.0518068
54	0x3dd3641c	0.10321829
55	0xbb9e7c36	-0.0048365844
56	0xbbcbaaaa	-0.006215413
57	0xbcbd0b2a	-0.023076613
58	0x3c318b9e	0.01083651
59	0x3d96d671	0.0736512
60	0x3dd986f4	0.106214434
61	0x3db2c500	0.08728981
62	0xbcb7806c	-0.022400104
63	0x3cc59829	0.024120407

fc3.weight f4 [32, 64]
0	0xbe3c90f5	-0.18414672
1	0xbe94c782	-0.29058462
2	0x3ce60d9e	0.028082665
3	0xbe577fab	-0.21044795
4	0xbdf2268e	-0.1182376
5	0x3dc91731	0.098188765
6	0xbd8761a6	-0.06610422
7	0x3e0960e1	0.13415863
8	0xbe4b957f	-0.19881247
9	0x3dfbaf95	0.12289349
10	0xbc500a78	-0.012697808
11	0x3b9a8e22	0.0047166506
12	0xbe0d6c6c	-0.13810891
13	0x3e224ab2	0.15848807
14	0xbe8da5e5	-0.2766563
15	0x3de30512	0.110849515
16	0x3cfe749d	0.031061465
17	0x3dee7364	0.11643103
18	0x3e0ed0f7	0.13946901
19	0xbe2b325a	-0.16718426
20	0x3dfdab16	0.12386148
21	0x3e1da655	0.15395482
22	0x3cb83e97	0.022490783
23	0x3d2e56cc	0.042563245
24	0xbded07bd	-0.115737416
25	0x3e0b8997	0.13626705
26	0x3d867972	0.065661326
27	0xbcf21f87	-0.029556049
28	0xbd09780d	-0.033561755
29	0xbe5c94a9	-0.21541084
30	0x3d489677	0.04897162
31	0x3d7f4bf3	0.06232829
32	0xbd6c17ff	-0.057640072
33	0x3de47077	0.111542635
34	0xbd7e5c50	-0.062099755
35	0xbe66697e	-0.2250118
36	0x3dbd68e9	0.09248526
37	0xbdb1527e	-0.08658312
38	0x3de59f47	0.1121202
39	0xbde86a11	-0.113483556
40	0x3d4f816d	0.05066054
41	0x3d90a5b1	0.07062853
42	0x3e15c01b	0.14624064
43	0xbd9429e1	-0.0723455
44	0xbd3619d3	-0.04445822
45	0xbe4b5648	-0.19857132
46	0x3ddad077	0.10684293
47	0xbca16bd8	-0.019704744
48	0xbc85dd4e	-0.016340878
49	0xbd0830a1	-0.0332495
50	0xbe9f9e0d	-0.3117527
51	0xbd65abb8	-0.056071967
52	0xbe74a957	-0.23892723
53	0xbcd15658	-0.025553867
54	0xbd691b61	-0.056910876
55	0x3c85ba04	0.01632405
56	0xbd4e1fb8	-0.050323218
57	0xbde750e5	-0.11294726
58	0x3cfdb67c	0.030970804
59	0xba55dc1c	-0.0008158104
60	0x3d71cd8d	0.05903392
61	0xbd1cce8d	-0.03828292
62	0x3d86ede4	0.06588343
63	0xbb394117	-0.0028267556
64	0xbe2d150f	-0.16902564
65	0xbe19f9c2	-0.15036681
66	0xbd87fc62	-0.06639935
67	0xbda216c8	-0.079145014
68	0x3d1f9db3	0.038968753
69	0x3df7bba3	0.12096336
70	0x3dc2d63b	0.095135175
71	0x3d511137	0.051041808
72	0xbe50248b	-0.2032644
73	0x3e1f4150	0.15552258
74	0xbc3905dc	-0.011292901
75	0x3c2b1124	0.010441098
76	0xbe39d1ac	-0.1814639
77	0x3d5264ac	0.05136554
78	0xbe5b88cb	-0.21438901
79	0x3d50b845	0.050956983
80	0x3de43230	0.11142385
81	0x3df1526e	0.117833
82	0xbcd07ae0	-0.025449216
83	0xbe80aa50	-0.25129938
84	0x3df18b3d	0.11794136
85	0xbc671bbb	-0.014105733
86	0x3e130b05	0.14359672
87	0xbc55bfd5	-0.013046225
88	0xbe4d83e5	-0.20069845
89	0x3e1db631	0.15401532
90	0xbd21e692	-0.03952653
91	0xbd8dc3f8	-0.06922144
92	0x3e163319	0.1466793
93	0xbdee91c1	-0.11648894
94	0x3d8b648f	0.068062894
95	0xbd830ba4	-0.06398705
96	0xbcbc37f3	-0.022975897
97	0xbd718382	-0.058963306
98	0x3cd81098	0.0263751
99	0xbe7593c5	-0.23982151
100	0x3da2bcb4	0.079461485
101	0x3dfd378c	0.1236411
102	0x3c30080a	0.010744104
103	0xbd78a3cb	-0.06070308
104	0x3df624f0	0.12018764
105	0xbc9aaa5b	-0.01888006
106	0xbd59b4ca	-0.05315093
107	0x3c9e4f5c	0.01932495
108	0xbb906317	-0.0044063437
109	0xbe4c4bf6	-0.19950852
110	0x3dd552c0	0.10416174
111	0xbb9a0597	-0.0047003734
112	0x3c792d16	0.015208503
113	0x3e1175d5	0.14205106
114	0xbe80a539	-0.25126055
115	0x3daf28cc	0.08552703
116	0xbe1ddd8c	-0.15416545
117	0x3d9d17c3	0.07670548
118	0xbdbde784	-0.09272674
119	0xbd83035f	-0.06397127
120	0x3da7942b	0.08182558
121	0xbe584d22	-0.21123174
122	0x3e70402a	0.23461977
123	0xbd0dbdfe	-0.03460502
124	0x3defaf44	0.11703351
125	0xbd54c4e1	-0.05194557
126	0xbd83c36d	-0.06433759
127	0x3dd3010b	0.10302933
128	0xbe16f5ab	-0.14742152
129	0xbe88d812	-0.2672735
130	0x3e0c2b15	0.1368831
131	0xbe4ac3e4	-0.19801289
132	0xbe2190bc	-0.15777868
133	0xbd4c0508	-0.049809486
134	0xbd2761fd	-0.040864933
135	0xbb4d4678	-0.003132252
136	0xbe32a605	-0.17446144
137	0xbd9deb78	-0.07710928
138	0x3cbe9086	0.023262274
139	0x3df620c4	0.12017968
140	0xbdb759a9	-0.08952648
141	0xbd9d7c86	-0.076897666
142	0xbe8bac95	-0.27280107
143	0xbc9cf727	-0.01916082
144	0x3d29702f	0.041366752
145	0x3e23db14	0.1600154
146	0xbd5a6a71	-0.053324167
147	0xbe519d3f	-0.20470141
148	0xbcea894a	-0.028629918
149	0x3cbda106	0.023148071
150	0xbc3d7cf5	-0.011565437
151	0xbc225902	-0.009908916
152	0xbdf75026	-0.12075834
153	0xbcd8b44c	-0.02645316
154	0x3ac05158	0.001467268
155	0xbb466ad3	-0.0030276075
156	0xbd7ccf61	-0.06172121
157	0xbe1b2a2d	-0.15152808
158	0x3cb7191b	0.022350838
159	0x3d3b870b	0.045783084
160	0xbe40f124	-0.18841988
161	0x3d415f44	0.047209993
162	0x3e2511d7	0.16120087
163	0xbe61bd02	-0.22044757
164	0x3d9b01bc	0.0756869
165	0x3c9b3c0f	0.018949537
166	0x3e102fe7	0.14080773
167	0xbe20c489	-0.15699972
168	0x3d4aa4d8	0.049473614
169	0x3ca9e163	0.020737356
170	0xbdb1c135	-0.086794294
171	0x3d986877	0.074418
172	0x3d8da1f7	0.06915658
173	0xbe6d95f7	-0.23201738
174	0x3e1a2492	0.15053013
175	0xbd64bc78	-0.0558438
176	0x3cdf71ff	0.027276037
177	0x3de4cf98	0.11172408
178	0xbeb188c3	-0.34674653
179	0x3e14d1d7	0.14533173
180	0xbd902eab	-0.07040151
181	0x3d88c32b	0.0667785
182	0xbd6766e5	-0.056494612
183	0x3e2260d1	0.15857245
184	0x3d841dfd	0.06451032
185	0xbd5c1e7f	-0.05374002
186	0x3c9729a0	0.018452466
187	0x3dbaec53	0.091271065
188	0x3d0b6629	0.034032974
189	0x3daf034c	0.08545551
190	0x3e24e839	0.16104211
191	0x3df79c11	0.12090314
192	0x3ccf2ea1	0.02529079
193	0x3d40fa9e	0.047114007
194	0xbc28924c	-0.010288786
195	0x3d2633d3	0.040576767
196	0x3c301342	0.010746779
197	0x39ce940e	0.0003940169
198	0x3bec7d57	0.00721709
199	0xbba5bec9	-0.0050581438
200	0x3d88f2c6	0.0668693
201	0x393c4a70	0.00017956807
202	0xb9c51c02	-0.00037595636
203	0xbce33a65	-0.027737806
204	0x3d2f68a9	0.04282442
205	0xba05cf1e	-0.000510441
206	0x3d982a34	0.074299246
207	0x3ba00d5c	0.004884405
208	0xbb151fd8	-0.0022754576
209	0x3abb7edb	0.0014304774
210	0x3b7179a2	0.003684618
211	0x3d461870	0.04836315
212	0xbc09e10b	-0.008415471
213	0xbc3aef5b	-0.011409606
214	0xbbb7859b	-0.005600644
215	0xbc03720b	-0.008022795
216	0x3cbe55a1	0.02323419
217	0x3b96476a	0.00458615
218	0xbbc7d507	-0.006098393
219	0x3c851b9f	0.016248522
220	0x3bda92f7	0.0066703516
221	0x3d5fe16e	0.054658346
222	0x3c277f69	0.010223248
223	0xbb9b7aa4	-0.0047448445
224	0x3d0bbb28	0.034114033
225	0xbaba9323	-0.0014234524
226	0xbc3ab358	-0.011395298
227	0x3d8ac46e	0.06775747
228	0x3b7af849	0.0038294962
229	0x3c1da799	0.009622478
230	0x3bc82a7c	0.00610858
231	0x3ca8d61b	0.020609906
232	0xbba115f4	-0.004915947
233	0xbb1de517	-0.0024092847
234	0x3b2bc9f8	0.0026212912
235	0xbb74d206	-0.003735663
236	0xbc1f7f79	-0.009734982
237	0x3d444ddf	0.047925826
238	0x3bf61457	0.007509749
239	0xbb8189fe	-0.0039532175
240	0xb9648f04	-0.00021797052
241	0x3bfbfc95	0.0076900222
242	0x3dbc9919	0.092088886
243	0x3a810377	0.0009842952
244	0x3cd7cd58	0.026343033
245	0xbbd5a1ec	-0.0065195467
246	0x3b1e7874	0.0024180682
247	0x3baba7b0	0.0052384958
248	0xbb9929a4	-0.0046741534
249	0x3d0f70bf	0.035019632
250	0xbcbf055e	-0.023317989
251	0x3b88257a	0.004154858
252	0x3b85b0b9	0.004079905
253	0x3b08548b	0.0020802345
254	0xbc33fb73	-0.010985243
255	0x3b0a978e	0.0021147463

fc3.bias f4 [32]
0	0xbcf05760	-0.029338539
1	0x3d2c5382	0.042071827
2	0x3dc35fe3	0.09539773
3	0x3bd87a3d	0.006606369
4	0x3c3525be	0.011056362
5	0x3d3451ce	0.044023328
6	0xbd9bfb52	-0.07616295
7	0xbcb623c8	-0.022233859
8	0x3d9b472a	0.07581933
9	0xbbc3c08c	-0.005973881
10	0x3d620b37	0.055186477
11	0xbdcce33d	-0.1000428
12	0x3ccc7154	0.024956383
13	0x3dc1d0ac	0.09463629
14	0xbd6245ab	-0.05524222
15	0x3d10d3a7	0.035358097
16	0x3dfbf53e	0.123026356
17	0x3dfbd680	0.12296772
18	0xbb0330ca	-0.0020018094
19	0xbae796a4	-0.0017668796
20	0xbd42df83	-0.04757644
21	0x3de85d00	0.11345863
22	0xbd50cfb8	-0.050979346
23	0x3c1ac05b	0.009445275
24	0x3d951daa	0.072810486
25	0x3d5d57da	0.05403886
26	0x3ca03710	0.019557506
27	0x3cba0e05	0.022711763
28	0xbc9646af	-0.018344251
29	0x3d775a68	0.060388952
30	0xbd0f0db3	-0.034925174
31	0xbcb634a0	-0.02224189

fc4.weight f4 [1, 32]
0	0x3e80c51e	0.25150388
1	0x3e6f3a3c	0.23362058
2	0x3e64fa40	0.22361088
3	0xbd5a83de	-0.053348415
4	0x3db0b4e8	0.08628255
5	0x3e687b09	0.22703184
6	0x3df3063c	0.118664235
7	0xbe18c79e	-0.14919898
8	0xbe2f7d91	-0.17137744
9	0x3e567332	0.20942381
10	0x3dfd29bb	0.12361475
11	0xbe596891	-0.21231295
12	0x3de28413	0.110603474
13	0x3e805757	0.25066635
14	0x3e0f9d78	0.14024913
15	0x3e6c32d0	0.23066258
16	0x3e39e309	0.18153013
17	0x3e09f3c0	0.1347189
18	0xbe72844b	-0.23683278
19	0x3e53788f	0.20651458
20	0x3dea2c46	0.11434226
21	0x3e415da3	0.18883376
22	0x3e5d48d6	0.21609816
23	0x3e6d740f	0.23188804
24	0x3e2e1844	0.17001444
25	0x3da870ef	0.082246654
26	0xbe14c212	-0.14527157
27	0x3def6bf7	0.116905145
28	0xbd5c10aa	-0.05372683
29	0x3e58e6f7	0.21181856
30	0xbe589cbf	-0.21153544
31	0x3e275142	0.16339591
